src/pharmpy/modeling/ml_models/infinds.tflite (tflite, 19916 bytes, 9 tensors)

unknown_0 f4 [64]
0	0xbd7aca52	-0.061228104
1	0xbc0f200b	-0.008735667
2	0x3b1a0a2e	0.0023504603
3	0x3d7e15d9	0.062032554
4	0xbd4e5f8d	-0.050384093
5	0x3adda49e	0.0016910022
6	0x3cb54f71	0.022132607
7	0xbd7d8146	-0.061890863
8	0x3dd2d017	0.10293596
9	0x3d771597	0.060323324
10	0xbce57f06	-0.028014671
11	0xbb84c9c8	-0.0040523745
12	0xbd27487c	-0.04084061
13	0x3bf0c371	0.007347517
14	0x3d2caacb	0.04215507
15	0x3db675c6	0.08909182
16	0x3d6fa233	0.058504295
17	0x3be9df7d	0.0071372376
18	0xbc90cab1	-0.017674776
19	0xbd1e3f80	-0.038634777
20	0xbca1d7f4	-0.019756295
21	0x3c8d1029	0.01721962
22	0x3db6f961	0.08934284
23	0xbd87c85b	-0.06630012
24	0x3d23f3ab	0.0400273
25	0x3c391812	0.011297243
26	0xbe028775	-0.12746985
27	0x3d84586d	0.064621784
28	0x3d8cee35	0.06881372
29	0x3b3f0be3	0.0029151372
30	0xbda0ce5b	-0.07851859
31	0xbcce92f4	-0.025216557
32	0xbd9106f9	-0.07081408
33	0x3c003d4d	0.007827115
34	0x3d499f54	0.049224213
35	0x3cc6fa77	0.024289353
36	0x3d86b8ea	0.06578238
37	0xbc922e6b	-0.0178444
38	0xbd5a1542	-0.05324293
39	0xbd64579a	-0.055747606
40	0x3d89a4b2	0.06720866
41	0xbd986148	-0.0744043
42	0xbc8e3d74	-0.017363288
43	0x3d896286	0.06708245
44	0x3d88b134	0.06674424
45	0xbdeba631	-0.11506308
46	0xbc67df31	-0.014152334
47	0x3e223542	0.15840629
48	0xbd8bfc57	-0.068352394
49	0x3d16945a	0.036762573
50	0x3c988a7f	0.018620728
51	0xbdb4b4bd	-0.088235356
52	0xbd317f70	-0.043334424
53	0xbcdad7de	-0.026714262
54	0x3cd7888f	0.026310233
55	0x3dc15269	0.094395466
56	0xbd75096a	-0.05982343
57	0x3ca63536	0.020289045
58	0x3e2408d4	0.16018993
59	0x3defd36d	0.11710248
60	0xbdd3deaa	-0.10345204
61	0xbd862e7e	-0.065518364
62	0x3d009fab	0.03140227
63	0xbced6199	-0.028977202

unknown_2 f4 [36]
0	0xbb8086c3	-0.003922315
1	0xbc74e0b5	-0.014946152
2	0xbcb38557	-0.021914167
3	0xbd3b01db	-0.045656066
4	0x3c16d2c7	0.009205527
5	0xbd5568d7	-0.052101936
6	0xbdc016a7	-0.093793206
7	0xbd26be98	-0.040709108
8	0x3d5f1762	0.05446566
9	0x3c7fdc59	0.0156165
10	0xbd1c43c3	-0.03815056
11	0x3d391335	0.045184333
12	0xbafbf07b	-0.0019221449
13	0x3d164626	0.036687993
14	0x3c5bfbe0	0.013426751
15	0xbb6e27b2	-0.0036339578
16	0xbd42f76f	-0.047599252
17	0xbd13f41e	-0.03612148
18	0xbdaaa742	-0.08332683
19	0x3c01da16	0.007925531
20	0xbb03eeb0	-0.0020131283
21	0x3d415fc4	0.04721047
22	0xbc05d41d	-0.0081682475
23	0x3d8765aa	0.06611188
24	0xbd9766c8	-0.07392651
25	0x3daae5fa	0.08344646
26	0xbcad50dd	-0.021156723
27	0x3c5aac38	0.013346724
28	0x3c57b1fb	0.013164992
29	0xbd1a78bd	-0.0377128
30	0xbd83613e	-0.06415032
31	0xbd0bbaec	-0.03411381
32	0xbd3db2ea	-0.046313204
33	0x3abf07db	0.0014574485
34	0x3d785a44	0.06063296
35	0xbceddc14	-0.029035605

unknown_4 f4 [24]
0	0x3c8a7b86	0.016904604
1	0xbb9af723	-0.004729168
2	0x3e4fbb60	0.20286322
3	0x3de96509	0.11396224
4	0xbd0c547b	-0.034260254
5	0x3dc2eb36	0.09517519
6	0x3d32fbcf	0.043697175
7	0xbc8e83a0	-0.017396748
8	0x3d8b503d	0.068024136
9	0x3e11d616	0.14241824
10	0x3cab6d61	0.02092618
11	0x39002b2b	0.00012223113
12	0x3cc8f059	0.02452867
13	0xbca76735	-0.020434955
14	0x3dd80355	0.105475105
15	0x3ce8746c	0.028375827
16	0xbc8dc02b	-0.017303547
17	0x3b2ef209	0.0026694557
18	0xbb16978b	-0.002297851
19	0x3d892515	0.06696526
20	0x3db623ac	0.088935226
21	0x3d342d67	0.04398861
22	0x3b3069dc	0.0026918566
23	0x3ce815a6	0.028330635

unknown_6 f4 [12]
0	0x00000000	0.0
1	0x3d943e0c	0.07238397
2	0x3d359563	0.04433192
3	0x3d549bb2	0.051906295
4	0x3d671b78	0.05642268
5	0xbae9ffe1	-0.0017852747
6	0xbcde9a24	-0.02717311
7	0xbcf10203	-0.029419905
8	0x3c05f48e	0.008175982
9	0xbc824e83	-0.015906578
10	0x3d7b8e3b	0.06141494
11	0xbca8bfc4	-0.020599253

sequential/dense/MatMul;StatefulPartitionedCall/sequential/dense/MatMul f4 [64, 11]
0	0xbe1cf715	-0.1532863
1	0xbe88d2fa	-0.26723462
2	0xbe249c7f	-0.16075324
3	0x3ea826f2	0.32842213
4	0x3d61ff4a	0.055175103
5	0x3e57be4c	0.21068686
6	0xbe57267b	-0.21010773
7	0x3e5fa0d1	0.2183869
8	0x3e3ef050	0.1864636
9	0xbc2cd7b2	-0.010549473
10	0x3e03145b	0.12800734
11	0x3e8e140e	0.27749676
12	0xbdc285d1	-0.0949818
13	0xbddbcddb	-0.10732623
14	0x3efc087d	0.49225226
15	0x3ed61b4a	0.41817695
16	0x3d2c9ddd	0.042142738
17	0x3e913b11	0.28365377
18	0x3d1b4a7d	0.037912834
19	0xbd75c8ef	-0.06000608
20	0x3da72537	0.08161395
21	0x3e3415b5	0.17586406
22	0x3da74baf	0.081687324
23	0xbe09f1cf	-0.13471149
24	0x3da8fb5c	0.08251068
25	0x3db606ae	0.08887993
26	0xbdb44819	-0.08802814
27	0x3e842b0d	0.25814095
28	0x3e296efa	0.1654624
29	0xbe06a802	-0.13150027
30	0x3e7fde03	0.24987034
31	0x3d90f822	0.070785776
32	0xbdc4012f	-0.09570538
33	0xbe8ff858	-0.2811916
34	0x3d875381	0.06607724
35	0x3e811749	0.25213078
36	0x3e4b78fa	0.19870368
37	0xbe6a1f81	-0.2286358
38	0x3cc52163	0.024063772
39	0x3e1e0d6e	0.1543481
40	0xbd60b249	-0.054857526
41	0xbd97489c	-0.07386896
42	0xbca1fd9b	-0.019774249
43	0xbe191174	-0.14948064
44	0xbe8018d8	-0.25018954
45	0xbe21d64c	-0.15804404
46	0x3e644427	0.22291623
47	0xbdd2cb7d	-0.102927186
48	0xbe774899	-0.24148788
49	0xbe82c6b0	-0.25542212
50	0x3cecb606	0.02889539
51	0x3de55c05	0.11199192
52	0xbddab5ce	-0.10679208
53	0xbe82b95c	-0.25532043
54	0xbe98d5ae	-0.29850525
55	0xbe678a23	-0.22611289
56	0x3e494782	0.19656184
57	0xbec364d1	-0.38162854
58	0xbe8a4326	-0.27004355
59	0xbe7ebf0f	-0.2487757
60	0xbdfa323b	-0.12216612
61	0x3e63c2e0	0.22242308
62	0xbe536e3b	-0.20647518
63	0xbe9d2e4e	-0.3069939
64	0x3da9ddc1	0.08294249
65	0x3e7a2cc7	0.24431144
66	0x3e010082	0.1259785
67	0xbe6d0163	-0.2314506
68	0xbc8247d7	-0.015903397
69	0x3eb285c3	0.34867677
70	0xbe8ef0a5	-0.27917972
71	0xbd2fcce8	-0.042920023
72	0xbe88c36b	-0.26711592
73	0x3dcdac72	0.10042657
74	0xbe79e745	-0.24404629
75	0x3ea453c9	0.32095173
76	0xbda72b28	-0.08162528
77	0x3e1e8578	0.15480602
78	0xbe68b160	-0.22723913
79	0x3d4c9080	0.049942493
80	0x3c87db39	0.016584026
81	0x3e959b3d	0.2922
82	0x3d38e763	0.045142543
83	0xbd5b69da	-0.053567745
84	0x3e997815	0.29974428
85	0xbe121760	-0.1426673
86	0x3be976e2	0.0071247676
87	0x3d9dd0d6	0.07705848
88	0x3e35f03a	0.1776742
89	0xbead2fa4	-0.3382541
90	0x3dcb9b61	0.099417455
91	0xbe01cdcf	-0.12676166
92	0x3e9a5f1c	0.30150688
93	0xbd8456e0	-0.064618826
94	0x3de1a982	0.11018659
95	0xbe669ee5	-0.22521551
96	0xbdc7a4cf	-0.097482316
97	0xbe64d76f	-0.22347806
98	0xbdfa533e	-0.122229084
99	0x3badde09	0.0053060097
100	0x3da69596	0.08134
101	0x3ecd07ca	0.40045005
102	0xbe5e307c	-0.21698183
103	0xbe219727	-0.15780316
104	0xbe6bf9fd	-0.23044582
105	0x3e3bd49f	0.18342827
106	0xbea24b07	-0.31697866
107	0xbd6ce125	-0.057831902
108	0x3da9d0d5	0.08291785
109	0x3e3c1cdf	0.18370388
110	0x3e039fc9	0.12853922
111	0xbdeb39d8	-0.11485642
112	0x3dc8aa57	0.09798115
113	0x3ea4e93d	0.32209197
114	0x3e8079e8	0.25093007
115	0x3d9e217b	0.0772123
116	0x3dd18c57	0.10231846
117	0xbe93e58f	-0.28886077
118	0xbe376a4f	-0.17911647
119	0xbe53a676	-0.20668969
120	0x3c169fe9	0.009193399
121	0xbe6cc2db	-0.23121206
122	0xbd1f3a7c	-0.038874134
123	0xbcec4409	-0.028841035
124	0xbe555b37	-0.20835577
125	0xbe231c44	-0.15928751
126	0xbe086efa	-0.13323584
127	0xbe1ba86f	-0.15200971
128	0xbe276b29	-0.16349472
129	0x3e28e88f	0.16494964
130	0x3ced2dbf	0.028952477
131	0xbdb12562	-0.08649708
132	0x3dd1bbc0	0.102408886
133	0x3eabdf35	0.3356873
134	0xbc94d3e2	-0.01816744
135	0x3d990db9	0.074733205
136	0xbe8b49e0	-0.272048
137	0x3e9b1d51	0.30295804
138	0x3cac9078	0.021064982
139	0x3ca4fb31	0.020139309
140	0xbdc627fb	-0.096755944
141	0xbd4bcc44	-0.04975535
142	0x3d9a3986	0.07530503
143	0x3e2efcc5	0.17088611
144	0x3e8ad0ae	0.27112335
145	0x3daec950	0.08534491
146	0x3e81176b	0.2521318
147	0xbe1c4763	-0.15261607
148	0x3d989a47	0.07451301
149	0x3d283733	0.041068267
150	0x3e66cdea	0.22539487
151	0x3e695223	0.22785239
152	0x3dfb77a9	0.12278683
153	0xbe9a43ca	-0.30129844
154	0xbe87085f	-0.26373574
155	0x3ea08dc5	0.31358162
156	0xbe5b8375	-0.21436866
157	0xbeb740e5	-0.35791698
158	0xbe71046b	-0.23536842
159	0x3e2194b1	0.15779378
160	0x3e4c5bce	0.19956896
161	0x3ed84e2a	0.42247134
162	0xbe9bf271	-0.30458406
163	0xbda653bb	-0.08121439
164	0xbdee9650	-0.116497636
165	0xbec66284	-0.38747036
166	0xbe33f456	-0.17573676
167	0xbe1bd6c1	-0.15218641
168	0x3e8e6629	0.27812317
169	0xbc7c7597	-0.015408895
170	0xbe652c5d	-0.22380204
171	0xbe8fadaf	-0.28062198
172	0x3d9943b8	0.074836195
173	0x3e75c528	0.2400099
174	0xbe1b28fc	-0.15152353
175	0xbe574382	-0.21021846
176	0x3ee057ff	0.43817136
177	0xbe4e9615	-0.20174439
178	0x3e547899	0.2074913
179	0xbe9a71a9	-0.3016484
180	0x3d812548	0.06305939
181	0x3dad36cc	0.08457717
182	0x3dd0a791	0.10188211
183	0x3d35fba2	0.04442943
184	0x3d5cabe6	0.053874873
185	0xbe57613c	-0.21033186
186	0xbd232c4a	-0.03983716
187	0xbeb8f1ce	-0.36121982
188	0x396843bc	0.00022150477
189	0x3e3e952a	0.18611589
190	0xbdc470d4	-0.09591833
191	0x3d5fdae2	0.054652102
192	0x3e319ea9	0.1734568
193	0xbd2b2447	-0.041782644
194	0x3e9eecca	0.3104003
195	0xbe2866e3	-0.16445498
196	0x3e8ee5dc	0.27909744
197	0xbe808414	-0.25100768
198	0xbe2b67a5	-0.16738756
199	0xbdca15fe	-0.09867476
200	0x3d71b0b9	0.059006426
201	0x3e289f68	0.16467059
202	0x3d152430	0.036411464
203	0x3d820aac	0.06349692
204	0xbe1024f0	-0.1407659
205	0xbe3a67a3	-0.18203597
206	0xbddc3d36	-0.107538626
207	0x3dfa44b8	0.12220138
208	0xbda55e7e	-0.080746636
209	0xbe863838	-0.26214767
210	0x3e0d7db5	0.13817485
211	0xbea78cea	-0.32724696
212	0x3e74b904	0.23898703
213	0xbe68701a	-0.22699013
214	0xbc5ee0f9	-0.013603442
215	0x3dc87988	0.09788805
216	0x3e31629c	0.17322773
217	0xbe821077	-0.25403187
218	0xbdaa2b5b	-0.08309051
219	0x3d4c6f90	0.04991108
220	0x3ea57fe4	0.32324135
221	0xbce3e45f	-0.027818857
222	0x3dcfa924	0.10139683
223	0x3cb4ff07	0.022094263
224	0x3d81837b	0.06323906
225	0x3e572e43	0.21013741
226	0x3e94add4	0.2903887
227	0xbea88885	-0.32916656
228	0x3dcf768e	0.101300344
229	0xbce25ca3	-0.027632063
230	0xbe0e0f18	-0.13872945
231	0x3e457d60	0.19286108
232	0xbd98248f	-0.07428848
233	0xbdbc7665	-0.092022695
234	0x3e884074	0.26611674
235	0x3d467729	0.048453484
236	0xbe723051	-0.23651244
237	0x3e219c27	0.15782224
238	0xbdedf7df	-0.11619543
239	0x3e0e769f	0.13912438
240	0x3e006993	0.12540273
241	0x3d64357a	0.05571506
242	0x3eb49fd7	0.35278198
243	0x3e529a38	0.20566642
244	0xbe8ff0f5	-0.28113523
245	0xba903769	-0.0011002842
246	0x3e682cdc	0.22673362
247	0xbdbd3e73	-0.09240427
248	0xbd160a6d	-0.036631037
249	0xbd77630a	-0.060397185
250	0x3dd97c8d	0.10619459
251	0x3eb97584	0.3622247
252	0xbe433bc1	-0.19065763
253	0x3ecdc038	0.40185714
254	0x3e9e7a57	0.30952713
255	0x3d72d37d	0.059283722

sequential/dense_1/MatMul;StatefulPartitionedCall/sequential/dense_1/MatMul f4 [36, 64]
0	0xbd92e614	-0.0717279
1	0x3e8fe298	0.28102565
2	0x3e724671	0.23659684
3	0x3e2498e8	0.16073954
4	0xbec85a7e	-0.3913154
5	0xbdbeedba	-0.093226865
6	0xbd896d17	-0.0671026
7	0xbdb22d0b	-0.086999975
8	0xbe4d8d01	-0.2007332
9	0xbdd53900	-0.104112625
10	0x3e694f5f	0.22784184
11	0xbee2e7c5	-0.4431745
12	0x3d9fc189	0.07800586
13	0xbe8d17cd	-0.2755722
14	0xbe594cb4	-0.21220666
15	0x3d1db25d	0.03850018
16	0x3dd01b8b	0.101615034
17	0xbe11271b	-0.14175074
18	0xbe1ccb72	-0.15311983
19	0xbd1a8ebf	-0.03773379
20	0x3eb37a1e	0.35054106
21	0xbe8862e0	-0.26637936
22	0xbe0fca69	-0.14042057
23	0xbe14916a	-0.14508596
24	0x3e72fba0	0.237288
25	0xbe304174	-0.17212468
26	0xbe59dff0	-0.21276832
27	0x3e296dc1	0.16545774
28	0x3d45dddd	0.04830729
29	0x3dc83e18	0.097774684
30	0x3db36ded	0.08761201
31	0x3e3efa56	0.18650183
32	0xbe8964c6	-0.26834697
33	0xbe0956f6	-0.13412079
34	0xbdd125f8	-0.1021232
35	0x3dc8bcb0	0.09801614
36	0xbe8d473a	-0.27593404
37	0xbed3ecf4	-0.41391718
38	0xbd9eb102	-0.07748605
39	0x3e15c298	0.14625013
40	0x3e5ca830	0.21548533
41	0xbe300f2e	-0.1719329
42	0x3b0ce08e	0.002149615
43	0xbcdb6ccf	-0.026785282
44	0x3d4d0da7	0.050061848
45	0xbe9f8091	-0.31152776
46	0x3e73a705	0.23794182
47	0xbe1475c1	-0.14498045
48	0xbd6f0863	-0.058357608
49	0x3c32e01d	0.010917691
50	0xbd8cc201	-0.06872941
51	0xbe6b54cd	-0.22981568
52	0x3de8fea8	0.11376697
53	0x3e662e0c	0.22478503
54	0xbf01c7ef	-0.506957
55	0xbd227914	-0.03966625
56	0x3d3d192d	0.046166588
57	0x3b58d844	0.0033087889
58	0xbd4f1cdb	-0.050564628
59	0xbd2fb182	-0.042893894
60	0x3c9d136e	0.019174304
61	0xbd9d298a	-0.076739386
62	0x3e334769	0.1750771
63	0x3e742600	0.23842621
64	0xbe2566bb	-0.1615247
65	0x3e06f288	0.13178456
66	0xbe1a64f9	-0.1507758
67	0x3e3ea74b	0.18618505
68	0xbcf722c7	-0.03016795
69	0x3e97f76c	0.29680955
70	0x3e96ceb2	0.2945457
71	0x3d8519e2	0.064990774
72	0x3e89d8a4	0.26923096
73	0x3db4044e	0.087898836
74	0x3d3973b7	0.04527637
75	0x3eabd7a3	0.33562955
76	0x3dc86cba	0.09786363
77	0x3d22802b	0.03967301
78	0x3c86b90f	0.016445665
79	0xbe877fae	-0.264646
80	0xbc046d26	-0.008082664
81	0xbe8b4f12	-0.27208763
82	0x3e0b3716	0.13595232
83	0xbe0b3b6b	-0.13596885
84	0xbe696fda	-0.22796574
85	0x3e59a1e0	0.21253157
86	0xbe6ca71e	-0.23110625
87	0xbecff510	-0.40616655
88	0x3e68779e	0.2270188
89	0xbe0d14cd	-0.13777466
90	0xbe89ec55	-0.2693812
91	0x3e7264e2	0.23671296
92	0xbd287bf9	-0.041133855
93	0xbe739fdd	-0.23791452
94	0xbe07e065	-0.13269193
95	0xbea50f6e	-0.32238334
96	0xbe899250	-0.2686944
97	0x3d899e5f	0.0671966
98	0x3e878197	0.26466057
99	0x3e62adfb	0.22136681
100	0x3e1c97f1	0.15292336
101	0x3d66ab86	0.05631592
102	0x3e67fe4a	0.22655597
103	0x3bba5f67	0.0056876424
104	0x3e0194a5	0.1265436
105	0x3e81f928	0.25385404
106	0xbdb7773e	-0.089582905
107	0x3e45c33d	0.19312759
108	0x3e144847	0.14480697
109	0x3e1526c3	0.14565568
110	0x3da31c26	0.07964353
111	0x3e53db23	0.20689063
112	0xbdfd1dd2	-0.123592034
113	0xbc81e853	-0.015857851
114	0x3e7056c4	0.23470598
115	0x3e131c90	0.14366364
116	0xbe0166a1	-0.12636806
117	0x3e5dd260	0.21662283
118	0x3c94846c	0.01812955
119	0xb901ffa6	-0.00012397635
120	0xbcf5dc64	-0.030012317
121	0xbb918d66	-0.004441905
122	0x3ce6a8e4	0.028156705
123	0x3eb9a67a	0.36259824
124	0xbdb20929	-0.086931534
125	0xbe22eb29	-0.15910019
126	0xbdc2bf32	-0.09509124
127	0xbe270ca0	-0.1631341
128	0x3dc259dc	0.094897956
129	0xbddb4e5c	-0.10708305
130	0xbea78681	-0.32719806
131	0x3cd73058	0.02626817
132	0xbe446b81	-0.19181634
133	0xbe6a43ea	-0.2287747
134	0x3d0757cb	0.03304271
135	0x3d63dd0a	0.05563072
136	0xbed44d6b	-0.41465315
137	0xbe35851d	-0.1772656
138	0xbe6006e0	-0.21877623
139	0xbe101bf1	-0.14073159
140	0xbe0fa0ab	-0.14026134
141	0xbe862b68	-0.2620499
142	0x3e60ad5e	0.21941134
143	0xbd2f6260	-0.042818427
144	0xbe19f993	-0.15036611
145	0x3e6a0050	0.22851682
146	0x3e12d407	0.14338695
147	0x3e895a62	0.2682677
148	0xbee65723	-0.44988355
149	0x3d810696	0.06300084
150	0xbe3a0322	-0.18165258
151	0xbe0413c7	-0.1289817
152	0xbd5a9abd	-0.053370226
153	0xbd9ce152	-0.07660164
154	0xbd9e02d6	-0.07715385
155	0xbda29c55	-0.07939974
156	0xbef28760	-0.47368908
157	0xbd89316f	-0.06698882
158	0xbdfbfb2e	-0.12303768
159	0x3d917269	0.071019
160	0x3e7fa277	0.24964319
161	0x3d11d8b2	0.035607047
162	0xbf01feae	-0.50779235
163	0x3df7cc96	0.120995685
164	0xbe618b50	-0.220258
165	0x3e5b5bb8	0.21421707
166	0x3dcfec65	0.101525106
167	0x3da15396	0.07877271
168	0x3dba56c6	0.09098582
169	0xbe56b15e	-0.20966098
170	0xbe7bd2d8	-0.2459215
171	0x3e09655b	0.1341757
172	0xbda9e007	-0.08294683
173	0xbbd46ad4	-0.0064824615
174	0x3e1fa859	0.15591563
175	0xbe630382	-0.22169307
176	0x3d42748a	0.04747442
177	0xbe1d09aa	-0.15335718
178	0xbeb05471	-0.34439424
179	0x3e91b90c	0.28461492
180	0x3e111adb	0.14170401
181	0x3d126fe4	0.03575124
182	0xbeaba476	-0.3352391
183	0x3db7c116	0.08972375
184	0x3e2d5e14	0.16930419
185	0x3cc5e941	0.024159076
186	0x3d4169cc	0.047220036
187	0x3d55c7b5	0.05219241
188	0x3dead4de	0.114663824
189	0xbe8af0a1	-0.2713671
190	0xbcad2eed	-0.02114054
191	0xbe108ae2	-0.1411548
192	0x3eac9143	0.33704576
193	0x3e2c5833	0.1683052
194	0xbdbe8f4b	-0.09304675
195	0xbc146e0e	-0.009059442
196	0xbebd9e12	-0.3703466
197	0x3e0e8eac	0.13921613
198	0xbec847de	-0.3911733
199	0x3cfac621	0.030612053
200	0xbdf37549	-0.11887605
201	0x3bcde5ab	0.006283482
202	0xbe230dab	-0.15923183
203	0xbe5ee283	-0.21766095
204	0xbd944e4b	-0.07241496
205	0x3cbb76ca	0.022883791
206	0x3e0cf4df	0.13765286
207	0xbe064a17	-0.131142
208	0xbd9ddcd0	-0.07708132
209	0xbdf2b973	-0.11851778
210	0xbe3bac6c	-0.18327492
211	0x3e04b465	0.1295944
212	0xbe2e7294	-0.17035896
213	0xbd9726c7	-0.07380443
214	0xbd85cf52	-0.06533684
215	0xbdd12c72	-0.102135554
216	0x3e28f66f	0.16500257
217	0xbdbbf6d4	-0.09177938
218	0xbe347e1d	-0.17626233
219	0x3ddb58f0	0.10710323
220	0x3e83d8ce	0.25751346
221	0xbe0c6a41	-0.13712408
222	0xbdf3fced	-0.11913476
223	0xbe072d18	-0.13200796
224	0xbdfde825	-0.12397794
225	0xbc3ee1ff	-0.011650561
226	0x3e1cd1ad	0.1531436
227	0xbd9000e9	-0.070314236
228	0xbca9ec13	-0.020742452
229	0x3e96fd5b	0.2949017
230	0x3e1e60bd	0.1546659
231	0x3d484c65	0.04890098
232	0x3e6db64f	0.23214076
233	0x3dadd437	0.084877424
234	0xbe7f125f	-0.24909352
235	0x3e9d5790	0.30730867
236	0xbe372a15	-0.17887147
237	0x3dbc1af5	0.09184829
238	0x3e117599	0.14205016
239	0xbe257911	-0.16159464
240	0x3e71526c	0.23566598
241	0x3d22009f	0.039551374
242	0x3eebc433	0.46048126
243	0x3e05fc60	0.13084555
244	0x3db0ab94	0.08626476
245	0x3e8cf727	0.27532312
246	0xbde18374	-0.11011401
247	0xbde98e02	-0.11404039
248	0xbdeca95f	-0.115557425
249	0x3db3101c	0.08743307
250	0x3dc0021d	0.09375403
251	0xbe86e43c	-0.26346004
252	0x3dee7262	0.116429105
253	0xbe203bfc	-0.15647882
254	0xbdd2dd6a	-0.10296138
255	0x3e0065c6	0.12538823

sequential/dense_2/MatMul;StatefulPartitionedCall/sequential/dense_2/MatMul f4 [24, 36]
0	0x3e92dfc2	0.2868634
1	0xbe605917	-0.21908985
2	0x3e70677f	0.2347698
3	0xbe68483c	-0.22683805
4	0x3e2b4e61	0.16729118
5	0xbc7cf7ec	-0.015439969
6	0xbeb3a1e8	-0.35084462
7	0x3dc95dc1	0.09832335
8	0x3ed005f3	0.4062954
9	0xbf5469c0	-0.8297386
10	0xbe5f39ec	-0.21799439
11	0x3e10375c	0.14083618
12	0x3e889ec9	0.26683643
13	0x3e68e76b	0.22744529
14	0x3e84cfc5	0.25939766
15	0xbe7926a6	-0.2433115
16	0xbe82d934	-0.25556338
17	0xbe018821	-0.12649585
18	0xbed6261c	-0.4182595
19	0x3e1b5821	0.15170337
20	0x3ee3dc00	0.44503784
21	0x3e9aa9f1	0.3020778
22	0xbd4a0f54	-0.049331024
23	0xbd838127	-0.06421118
24	0xbf538a25	-0.82632667
25	0xbde650ec	-0.112459034
26	0x3eba2f72	0.36364323
27	0x3e902e41	0.2816029
28	0x3d62cda9	0.055371914
29	0xbe1fac1e	-0.15593001
30	0x3e01c061	0.12671043
31	0xbebd938a	-0.37026626
32	0x3d8e73ae	0.06955658
33	0xbd9f2e7f	-0.0777254
34	0xbd0ae39b	-0.033908468
35	0xbe11d635	-0.1424187
36	0x3df9f30f	0.12204563
37	0x3eb9049a	0.36136323
38	0x3d5bb1d2	0.05363638
39	0x3ed4c298	0.41554713
40	0xbe974dc8	-0.2955153
41	0xbeca9071	-0.39563325
42	0x3eaf0d02	0.34189612
43	0xbe3cd2f6	-0.1843985
44	0x3e5d9a58	0.21640909
45	0xbdf1ce53	-0.11806931
46	0x3eda2fcd	0.42614594
47	0xbf10193d	-0.5628851
48	0xbe1b0f22	-0.15142491
49	0xbd9fc6df	-0.078016035
50	0xbef4d8f0	-0.4782176
51	0x3e5d2bb6	0.21598706
52	0x3e9b0b36	0.3028199
53	0xbea56d9f	-0.32310197
54	0x3e7a007a	0.24414244
55	0x3e30bb49	0.17258944
56	0xbe766cca	-0.24064937
57	0xbf153ced	-0.5829609
58	0xbd3f15c4	-0.046651617
59	0x3d7b637e	0.06137418
60	0x3ebc3d54	0.3676554
61	0x3d35db10	0.044398367
62	0x3e1f5227	0.15558682
63	0x3eae2f69	0.34020546
64	0xbe0042ef	-0.12525533
65	0x3e97b5bc	0.2963084
66	0x3dd4b6d1	0.10386432
67	0xbe128c34	-0.14311296
68	0x3e3322c6	0.17493734
69	0xbe75e787	-0.24014102
70	0xbe3a457d	-0.1819057
71	0xbe82376b	-0.25432906
72	0x3ed6db49	0.41964176
73	0xbd1eeca8	-0.03879991
74	0x3e860155	0.2617289
75	0x3d6514ee	0.055928163
76	0x3eaadbc9	0.33370808
77	0xbd0e43d5	-0.03473266
78	0x3e63c5dc	0.22243446
79	0xbe1b47d8	-0.15164125
80	0x3eb8b979	0.36079004
81	0x3b3e1124	0.0029001916
82	0x3ebb0c7e	0.36532968
83	0xbeec72ee	-0.46181434
84	0xbe507ab4	-0.20359308
85	0xbe69b87c	-0.22824281
86	0xbe1dbb34	-0.15403444
87	0x3e7eaa85	0.24869736
88	0x3de82caa	0.11336644
89	0x3d301b4f	0.042994794
90	0x3e888120	0.26661015
91	0xbdd1d94e	-0.10246526
92	0x3d1a54ef	0.037678655
93	0xbd7f4711	-0.062323634
94	0x3ec84ab8	0.39119506
95	0x3e7d012c	0.24707478
96	0x3e95b21b	0.29237446
97	0x3e39b691	0.1813605
98	0xbd1b7cd4	-0.037960842
99	0x3e730700	0.23733139
100	0x3ebe76c4	0.37199986
101	0x3e1997f6	0.14999375
102	0x3d99bb9e	0.07506488
103	0xbdb8c79d	-0.09022448
104	0xbd95d702	-0.073164
105	0x3ea855b3	0.32877883
106	0x3dc898ac	0.09794745
107	0xbe9d3ccb	-0.30710444
108	0x3e2ea6e2	0.17055848
109	0x3e073440	0.13203526
110	0x3da075d2	0.078349724
111	0x3e7c6f35	0.24651797
112	0x3e937691	0.28801396
113	0x3e96c894	0.29449904
114	0xbe4c3b5a	-0.19944516
115	0x3f03b305	0.5144504
116	0x3ece0c75	0.4024388
117	0x3d1f8068	0.038940817
118	0xbe50370f	-0.20333503
119	0x3f1a7c0c	0.6034553
120	0x3f18bb20	0.5966053
121	0x3e862f31	0.2620788
122	0x3d802c20	0.06258416
123	0xbd857a40	-0.06517458
124	0xbe0be901	-0.13663103
125	0xbeb9a93e	-0.36261934
126	0xbe459028	-0.19293272
127	0x3e6f6e05	0.23381813
128	0xbc509aaa	-0.012732187
129	0x3e96315d	0.29334536
130	0x3da2dac7	0.07951885
131	0x3e269ede	0.1627154
132	0xbe66b3bc	-0.225295
133	0x3e75e4dd	0.24013086
134	0x3e119bd2	0.14219597
135	0xbd00983f	-0.031395193
136	0xbc9987f6	-0.018741589
137	0xbe22993f	-0.15878771
138	0xbd86d9b7	-0.065844946
139	0x3e874dc3	0.26426515
140	0x3d81e690	0.063428044
141	0xbe5409de	-0.20706889
142	0xbe90b525	-0.28263202
143	0x3e17e9cb	0.14835279
144	0xbe4c95b2	-0.19978979
145	0x3e6aaba2	0.22917035
146	0x3e718075	0.23584159
147	0xbe9f0995	-0.31061998
148	0xbd757852	-0.0599292
149	0x3eb112b4	0.34584582
150	0x3e84f630	0.25969076
151	0xbd469bf6	-0.04848858
152	0x3dd5f7ad	0.10447631
153	0xbc7b0f82	-0.015323522
154	0xbe715dc2	-0.23570922
155	0x3f00cb1a	0.5030991
156	0x3ea82e18	0.32847667
157	0xbd438696	-0.047735773
158	0x3ed708bd	0.41998854
159	0xbe78463d	-0.24245544
160	0x3e29b766	0.16573867
161	0x3e5de0c8	0.21667778
162	0x3e6829dd	0.2267222
163	0xbe97a824	-0.2962047
164	0x3dd43969	0.103625126
165	0x3e7931c0	0.24335384
166	0x3de642ff	0.11243247
167	0xbeb718fd	-0.35761252
168	0xbde24fa2	-0.11050345
169	0xbe2173ce	-0.15766832
170	0xbdc870e2	-0.09787156
171	0xbe778093	-0.24170141
172	0x3e3ceaf4	0.18449003
173	0x3ca0b67d	0.019618267
174	0x3e1c9012	0.15289333
175	0x3ea1b6bf	0.31584737
176	0xbde7541d	-0.1129534
177	0xbc84777c	-0.016170256
178	0x3e162509	0.14662565
179	0x3e4ac73a	0.19802561
180	0xbf0d7037	-0.5524935
181	0xbeba4089	-0.3637736
182	0xbe6681a9	-0.22510399
183	0x3e07afe8	0.13250697
184	0x3e8ffae6	0.28121108
185	0x3dda9140	0.106722355
186	0x3e30369e	0.17208335
187	0xbe22ee8b	-0.1591131
188	0xbe288d2e	-0.16460106
189	0xbeec57ad	-0.4616064
190	0xbe9f91b9	-0.31165865
191	0x3f20b283	0.6277239
192	0x3f283bdb	0.6571633
193	0x3e9d8a8f	0.30769774
194	0x3f00c26e	0.50296676
195	0xbda239d7	-0.07921188
196	0xbe3b997f	-0.18320273
197	0x3eb13299	0.34608915
198	0xbe4c1e4f	-0.19933437
199	0xbe181584	-0.14851958
200	0xbe9cb0fa	-0.30603772
201	0xbed9e7f7	-0.42559788
202	0xbe80a5c6	-0.25126475
203	0x3db4b729	0.088239975
204	0x3e91143c	0.2833575
205	0xbe94b904	-0.29047406
206	0x3b7fbdb3	0.0039022982
207	0xbe827763	-0.2548171
208	0xbcf887b9	-0.030338155
209	0x3e66b055	0.22528203
210	0x3e90b7ab	0.28265128
211	0x3e6f33e7	0.23359643
212	0xbe30d435	-0.1726845
213	0x3e3662c4	0.17811114
214	0xbe872d9c	-0.26401985
215	0xbe18f390	-0.14936662
216	0x3eec6078	0.4616735
217	0x3de41173	0.11136141
218	0x3ea6493a	0.32477742
219	0x3d86a5d2	0.065745965
220	0x3dbcd5ed	0.092204906
221	0xbeaa1bd5	-0.3322436
222	0xbe637580	-0.22212791
223	0xbf0e3d1b	-0.5556199
224	0xbe11ec9a	-0.14250413
225	0x3dfa2200	0.12213516
226	0x3e6aef0c	0.22942752
227	0xbccbbf16	-0.02487139
228	0x3e002d88	0.12517369
229	0xbd6c4c9b	-0.057690244
230	0xbe007923	-0.1254621
231	0xba719a82	-0.0009216444
232	0x3eaea315	0.34108797
233	0xbe38aa7c	-0.18033785
234	0x3e92d551	0.28678373
235	0x3e83d9a6	0.2575199
236	0xbb89e8a8	-0.004208643
237	0xbe2d575e	-0.16927859
238	0x3dd75337	0.10513919
239	0xbe283336	-0.16425785
240	0x3e3b3c9c	0.1828484
241	0x3e761cee	0.24034473
242	0x3d291cbf	0.04128718
243	0x3ed0568a	0.40691024
244	0x3e827309	0.2547839
245	0x3e878b8d	0.26473656
246	0x3e4f7ff5	0.20263655
247	0x3e8d5396	0.27602834
248	0x3eb3afac	0.35094965
249	0x3dea67ea	0.11445601
250	0x3cccf521	0.02501923
251	0xbec34f1d	-0.38146296
252	0xbe756ef7	-0.23968111
253	0x3e424b96	0.18974146
254	0x3ea38619	0.31938246
255	0xbe29deea	-0.16588941

sequential/dense_3/MatMul;StatefulPartitionedCall/sequential/dense_3/MatMul f4 [12, 24]
0	0xbe035360	-0.12824774
1	0x3e94f5c0	0.29093742
2	0xbea00b16	-0.31258458
3	0x3da4016c	0.08008084
4	0xbec23bf8	-0.37936378
5	0xbd802884	-0.06257728
6	0xbdffb4e0	-0.12485671
7	0xbec6ca58	-0.3882625
8	0xbea60bbc	-0.32430828
9	0xbda9bdc0	-0.08288145
10	0xbeb765b1	-0.35819772
11	0xbe4d7fd9	-0.20068301
12	0x3db1f184	0.086886436
13	0x3e1ae700	0.15127182
14	0xbca27b30	-0.019834131
15	0xbdcb6d2c	-0.09932932
16	0x3e7e8c58	0.24858224
17	0xbe34dc5c	-0.17662185
18	0x3c9b6c10	0.018972427
19	0x3d5d2120	0.05398667
20	0x3e495db0	0.19664645
21	0x3c136e20	0.008998424
22	0xbde3eb9c	-0.11128923
23	0xbe8c0025	-0.2734386
24	0x3b47aeef	0.0030469259
25	0xbe69427f	-0.22779272
26	0xbdeb208e	-0.11480819
27	0x3eb8c4b5	0.36087576
28	0x3e343334	0.17597657
29	0x3dcebe30	0.10094869
30	0xbe9b2a47	-0.30305693
31	0xbe46f5fb	-0.19429772
32	0x3ee8ced2	0.4547029
33	0xbed3ec1f	-0.41391084
34	0xbeb7a589	-0.3586848
35	0x3ac50b30	0.0015033241
36	0xbea47eaa	-0.32127887
37	0xbe642d8a	-0.22282997
38	0x3e73b563	0.23799662
39	0x3f05208d	0.52002794
40	0xbe90e5bc	-0.28300273
41	0xbf06f9a1	-0.52724653
42	0xbec19915	-0.37812105
43	0x3e107a8b	0.14109246
44	0xbefe0a63	-0.496173
45	0x3d8e4d4e	0.069483384
46	0x3ef58d39	0.47959307
47	0x3e9b8348	0.30373597
48	0xbd9e84d6	-0.0774018
49	0xbe519c4f	-0.20469783
50	0xbe3c8a7b	-0.18412201
51	0x3e986af5	0.29769102
52	0x3e8d005c	0.27539337
53	0x3e819afe	0.25313562
54	0xbea846c9	-0.32866505
55	0x3e8c1e88	0.27367043
56	0xbe1569d8	-0.14591157
57	0xbe8e44a5	-0.27786747
58	0xbedea615	-0.43486086
59	0x3d613540	0.054982424
60	0xbf10ebf3	-0.5661003
61	0x3ccd0005	0.025024423
62	0xbeb29a01	-0.3488312
63	0xbe2cca39	-0.16874017
64	0x3f00e88b	0.5035483
65	0xbdda04dd	-0.10645459
66	0x3dbdcd52	0.09267677
67	0x3efbf0fb	0.4920729
68	0x3ebb99dc	0.36640823
69	0x3e8afba1	0.27145103
70	0xbdba40b5	-0.09094373
71	0xbdb8e061	-0.09027172
72	0xbf2719b9	-0.65273625
73	0x3f004418	0.501039
74	0x3d8fbf50	0.07018912
75	0xbea87cea	-0.32907802
76	0xbe9da5ab	-0.30790457
77	0xbf4c141a	-0.7971817
78	0x3e5224af	0.20521806
79	0xbefa164b	-0.48845133
80	0xbf49edc3	-0.7887842
81	0xbf23091f	-0.6368579
82	0x3e431cd2	0.19053963
83	0x3eecf97b	0.46284088
84	0x3f12ff5e	0.5742091
85	0xbeaabddc	-0.33347976
86	0xbe6de24b	-0.23230855
87	0x3e318b82	0.17338374
88	0xbedefe62	-0.43553454
89	0x3f0e5c7f	0.5560989
90	0x3e786e05	0.24260719
91	0xbef98a98	-0.4873855
92	0x3e2ddfcf	0.16979907
93	0x3eda4bfe	0.42636102
94	0x3e281457	0.16414009
95	0x3ed5263e	0.4163074
96	0xbe392ff3	-0.18084697
97	0x3d35a33c	0.044345126
98	0x3e9d2a30	0.3069625
99	0x3e24e28e	0.16102049
100	0x3efa4a64	0.4888488
101	0x3f04bb07	0.5184788
102	0xbe17932b	-0.14802234
103	0x3c14d1c4	0.009083215
104	0x3f162fed	0.5866688
105	0xbd460e8c	-0.048353717
106	0x3ea5b187	0.32362005
107	0xbe9f5cfb	-0.31125626
108	0xbefbcb5d	-0.4917859
109	0x3eaafb3d	0.33394805
110	0x3d8cddee	0.06878267
111	0x3e89d32e	0.2691893
112	0x3eca9183	0.39564142
113	0xbe10ceb5	-0.14141352
114	0xbe0e452f	-0.13893579
115	0x3da519c3	0.08061554
116	0xbeac15ad	-0.33610287
117	0xbe84b84a	-0.2592185
118	0x3c220517	0.009888909
119	0x3dbf5cc8	0.093438685
120	0xbe381eb4	-0.17980462
121	0xbe4befb7	-0.19915663
122	0xbebb3147	-0.36561033
123	0xbe1144c6	-0.14186391
124	0x3e16bc79	0.14720334
125	0xbeb36be4	-0.35043252
126	0x3e2ea957	0.17056786
127	0x3cfaf475	0.030634144
128	0xbdaa6241	-0.08319522
129	0x3e77fb9a	0.24217072
130	0x3d952090	0.072816014
131	0xbe791b48	-0.24326813
132	0xbcf5ab2d	-0.02998885
133	0xbe316629	-0.17324127
134	0xbe0686e0	-0.13137388
135	0x3eeca722	0.46221262
136	0x3ee4a16a	0.446544
137	0x3e8ab06a	0.27087718
138	0x3e38f932	0.1806381
139	0x3ed375e4	0.4130088
140	0x3e721805	0.23641975
141	0xbecd1906	-0.40058154
142	0xbc455fea	-0.0120467935
143	0x3e34f380	0.17671013
144	0x3e5c7bfc	0.21531671
145	0xbf022870	-0.5084295
146	0x3cd82c5b	0.026388338
147	0x3ec25dd2	0.37962204
148	0xbe545db9	-0.20738877
149	0x3eddb223	0.4329997
150	0x3da02fae	0.07821594
151	0x3e4bea1a	0.19913521
152	0x3da322d2	0.07965626
153	0x3d86660b	0.06562432
154	0x3e911b2c	0.28341043
155	0xbec0401d	-0.37548915
156	0xbe6138ac	-0.21994275
157	0xbec57629	-0.38566712
158	0x3f23b2aa	0.63944495
159	0xbea6b580	-0.3256035
160	0x3d052475	0.03250547
161	0xbe97ec4a	-0.29672462
162	0x3ed45d40	0.41477394
163	0x3e269b2a	0.16270128
164	0xbe83affc	-0.25720203
165	0xbec1df68	-0.37865758
166	0xbecc65b0	-0.3992133
167	0x3ed47779	0.414974
168	0x3ea28fdb	0.31750378
169	0xbdee77d3	-0.116439484
170	0x3db318fe	0.08745001
171	0x3e85c5e5	0.26127544
172	0xbf082f5f	-0.5319728
173	0xbf0cb377	-0.5496134
174	0x3c2dafe8	0.010601021
175	0x3e0beda6	0.13664874
176	0x3e268b96	0.16264185
177	0x3e4083ac	0.18800229
178	0xbed149be	-0.40876573
179	0xbf860a57	-1.0471905
180	0x3f2b783d	0.66980344
181	0xbe8e5702	-0.27800757
182	0x3ee65caf	0.44992587
183	0xbe9d8b45	-0.30770317
184	0xbde336e0	-0.11094451
185	0x3d448cb0	0.047985733
186	0x3ce22243	0.027604228
187	0x3e8f279b	0.27959904
188	0x3f17271c	0.5904405
189	0xbe6a5730	-0.22884822
190	0xbf0a17b8	-0.5394244
191	0x3daaf3fd	0.08347318
192	0xbf3aab91	-0.7291804
193	0x3f224507	0.6338658
194	0x3eb06563	0.34452352
195	0xbe55fd3b	-0.20897381
196	0xbef7bdad	-0.483869
197	0xbf0e3161	-0.55544096
198	0x3ec78e7b	0.3897589
199	0xbe4bcf88	-0.19903386
200	0xbf23265d	-0.6373041
201	0x3cbe1e7b	0.023207894
202	0x3e9dc39b	0.30813298
203	0x3eca62d9	0.3952854
204	0x3f3434ff	0.70393366
205	0xbe98ffad	-0.29882565
206	0xbda1c4e8	-0.07898885
207	0x3ed19a00	0.40937805
208	0xbeb1702e	-0.346559
209	0x3f08d24d	0.53445894
210	0x3eb466cd	0.3523468
211	0xbf300c8d	-0.6876915
212	0x3f2ea1ce	0.68215644
213	0x3e316aa6	0.1732584
214	0x3ee543ba	0.44778234
215	0x3eab27ac	0.33428705
216	0xbf3ce9e3	-0.7379438
217	0x3ef68418	0.48147655
218	0x3ee80c9c	0.4532212
219	0x3cc9d445	0.02463735
220	0xbda48455	-0.08033053
221	0xbf0ca05e	-0.549322
222	0xbda00d0b	-0.07814988
223	0xbec283ce	-0.37991184
224	0xbf0c33be	-0.5476645
225	0xbf3f28ab	-0.7467143
226	0xbec4576b	-0.38347945
227	0x3ebb970d	0.3663868
228	0x3db64932	0.0890068
229	0x3b8d1aa5	0.004306155
230	0xbdc77d41	-0.09740687
231	0xbeb38891	-0.3506513
232	0x3e2edb85	0.17075928
233	0x3d876594	0.06611171
234	0x3f0d0dd6	0.55099237
235	0xbe599107	-0.2124673
236	0xbb7d09cf	-0.0038610583
237	0x3ede90ea	0.43469936
238	0x3b7c00df	0.0038452668
239	0xbe30c6ea	-0.1726338
240	0x3debff26	0.11523275
241	0xbf1098ba	-0.5648304
242	0xbe883c76	-0.26608628
243	0xbe667681	-0.22506143
244	0x3ccf2275	0.025284985
245	0x3f059fe2	0.52197087
246	0xbef7852a	-0.48343784
247	0x3eb97e3b	0.3622912
248	0xbec71770	-0.3888507
249	0xbd77e225	-0.060518403
250	0x3e82e84d	0.25567856
251	0xbe582e3a	-0.21111384
252	0xbe0ef1f0	-0.1395948
253	0xbdd219c2	-0.10258819
254	0xbf2ede89	-0.6830831
255	0x3ef9b806	0.4877321

sequential/dense_4/MatMul;StatefulPartitionedCall/sequential/dense_4/MatMul f4 [1, 12]
0	0x3e8cc8b8	0.27496886
1	0xbee2779c	-0.4423188
2	0x3edf4a4e	0.43611377
3	0x3f84236e	1.0323312
4	0xbeec9534	-0.46207583
5	0xbf11071f	-0.5665149
6	0x3f3c10fb	0.7346341
7	0x3f952cf0	1.1654339
8	0x3f45acd5	0.77216846
9	0x3e82aa19	0.255204
10	0xbf33278b	-0.6998221
11	0xbe5db119	-0.21649589
